…
we apply a ReLU activation with 40%dropout. A second layer maps the first layer’s output down to 128 di-mensions, applying a ReLU activation with 30% dropout. Finally, the 128dimensions are mapped down to 10, the number of classes in theMNISTdata.In[37]:mnist_model = MNISTModel()We can check that the model produces output of expected size based onour existing 10])Let’s take a look at the summary of the model. Instead of aninput_sizewe can pass a tensor of correct shape. In this case, we pass through thefinal batchedX_from above.446 10. Deep (type:depth-idx) Input Shape Output Shape 1, 28, 28] [256, 10] --Sequential: 1-1[256, 1, 28, 28] [256, 10] --Sequential: 2-1 [256, 1, 28, 28] [256, 256] --Flatten: 3-1 [256, 1, 28, 28] [256, 784] --Linear: 3-2 [256, 784] [256, 256] 200,960ReLU: 3-3 [256, 256] [256, 256] --Dropout: 3-4 [256, 256] [256, 256] --Sequential: 2-2 [256, 256] [256, 128] --Linear: 3-5 [256, 256] [256, 128] 32,896ReLU: 3-6 [256, 128] [256, 128] --Dropout: 3-7 [256, 128] [256, 128] --Linear: 2-3[256, 128] [256, 10] params: 235,146Trainable params: 235,146Having set up both the model and the data module, fitting this model isnow almost identical to theHittersexample. In contrast to our regressionmodel, here we will use theSimpleModule.classification()method whichSimpleModule.classifi-cation()uses the cross-entropy loss function instead of mean squared error.In[40]:mnist_module 
…
trates some of the power of torch. Users can define modules of their own,450 10. Deep Learningwhich can be combined in other modules. Ultimately, everything is fit bya generic trainer.In[54]:class CIFARModel(nn.Module):def __init__(self):super(CIFARModel, self).__init__()sizes = [(3,32),(32,64),(64,128),(128,256)]self.conv = nn.Sequential(*[BuildingBlock(in_, out_)for in_, out_ in sizes])self.output = 512),nn.ReLU(),nn.Linear(512, 100))def forward(self, x):val = self.conv(x)val = torch.flatten(val, start_dim=1)return self.output(val)We build the model and look at the summary. (We had created examplesofX_earlier.)In[55]:cifar_model = (type:depth-idx) Input Shape Output Shape 3, 32, 32] [128, 100]--Sequential: 1-1 [128, 3, 32, 32] [128, 256, 2, 2] --BuildingBlock: 2-1 [128, 3, 32, 32] [128, 32, 16, 16] --Conv2d: 3-1 [128, 3, 32, 32] [128, 32, 32, 32] 896ReLU: 3-2 [128, 32, 32, 32] [128, 32, 32, 32] --MaxPool2d: 3-3 [128, 32, 32, 32] [128, 32, 16, 16] --BuildingBlock: 2-2 [128, 32, 16, 16] [128, 64, 8, 8] --Conv2d: 3-4 [128, 32, 16, 16] [128, 64, 16, 16] 18,496ReLU: 3-5 [128, 64, 16, 16] [128, 64, 16, 16] --MaxPool2d: 3-6 [128, 64, 16, 16] [128, 64, 8, 8] --BuildingBlock: 2-3 [128, 64, 8, 8] [128, 128, 4, 4] --Conv2d: 3-7 [128, 64, 8, 8] [128, 128, 8, 8] 73,856ReLU: 3-8 [128, 128, 8, 8] [128, 128, 8, 8] --MaxPool2d: 3-9 [128, 128, 8, 8] [128, 128, 4, 4] --BuildingBlock: 2-4 [128, 128, 4, 4] [128, 256, 2, 2] --Conv2d: 3-10 [128, 128, 4, 4] [128, 256, 4, 4] 295,168ReLU: 3-11 [128, 256, 4, 4] [128, 256, 4, 4] --MaxPool2d: 3-12 [128, 256, 4, 4] [128, 256, 2, 2] --Sequential: 1-2 [128, 1024] [128, 100]--Dropout: 2-5 [128, 1024] [128, 1024] --Linear: 2-6 [128, 1024] [128, 512]524,80010.9 Lab: Deep Learning 451ReLU: 2-7 [128, 512][128, 512]--Linear: 2-8 [128, 512][128, params: 964,516Trainable params: 964,516The total number of trainable parameters is 964,516. By studying the sizeof the parameters, we can see that the channels halve in both dimensionsafter each of these max-pooling operations. After the last of these we havea layer with
…
